…
e":"2023-04-26T13:49:51.05296Z","shell.execute_reply.started":"2023-04-26T13:49:51.011517Z","shell.execute_reply":"2023-04-26T13:49:51.051387Z"},"trusted":true},"execution_count":20,"outputs":[{"name":"stdout","text":"Model: \"model\"\n_________________________________________________________________\n Layer (type)                Output Shape              Param #   \n=================================================================\n input_1 (InputLayer)        [(None, 25, 25, 30, 1)]   0         \n                                                                 \n conv3d (Conv3D)             (None, 23, 23, 24, 8)     512       \n                                                                 \n conv3d_1 (Conv3D)           (None, 21, 21, 20, 16)    5776      \n                                                                 \n conv3d_2 (Conv3D)           (None, 19, 19, 18, 32)    13856     \n                                                                 \n reshape (Reshape)           (None, 19, 19, 576)       0         \n                                                                 \n conv2d (Conv2D)             (None, 17, 17, 64)        331840    \n                                                                 \n flatten (Flatten)           (None, 18496)             0         \n                                                                 \n dense (Dense)               (None, 256)               4735232   \n                                                                 \n dropout (Dropout)           (None, 256)               0         \n                                                                 \n dense_1 (Dense)             (None, 128)               32896     \n                                                                 \n dropout_1 (Dropout)         (None, 128)               0         \n                                                                 \n dense_2 (Dense)             (None, 16)                2064      \n                                                                 \n=================================================================\nTotal params: 5,122,176\nTrainable params: 5,122,176\nNon-trainable params: 0\n_________________________________________________________________\n","output_type":"stream"}]},{"cell_type":"code","source":"adam = tf.keras.optimizers.legacy.Adam(learning_rate=0
…
